Model: "sequential"
_________________________________________________________________
 Layer (type)                Output Shape              Param #   
=================================================================
 normalization (Normalizatio  (6191, 171, 13, 1)       3         
 n)                                                              
                                                                 
 conv2d_1 (QConv2D)          (6191, 171, 13, 16)       144       
                                                                 
 batch_normalization (BatchN  (6191, 171, 13, 16)      64        
 ormalization)                                                   
                                                                 
 act_1 (QActivation)         (6191, 171, 13, 16)       0         
                                                                 
 conv2d_2 (QConv2D)          (6191, 86, 7, 32)         4608      
                                                                 
 batch_normalization_1 (Batc  (6191, 86, 7, 32)        128       
 hNormalization)                                                 
                                                                 
 act_2 (QActivation)         (6191, 86, 7, 32)         0         
                                                                 
 max_pooling2d (MaxPooling2D  (6191, 43, 3, 32)        0         
 )                                                               
                                                                 
 conv2d_3 (QConv2D)          (6191, 22, 2, 64)         18432     
                                                                 
 batch_normalization_2 (Batc  (6191, 22, 2, 64)        256       
 hNormalization)                                                 
                                                                 
 act_3 (QActivation)         (6191, 22, 2, 64)         0         
                                                                 
 max_pooling2d_1 (MaxPooling  (6191, 11, 1, 64)        0         
 2D)                                                             
                                                                 
 conv2d_4 (QConv2D)          (6191, 6, 1, 128)         73728     
                                                                 
 batch_normalization_3 (Batc  (6191, 6, 1, 128)        512       
 hNormalization)                                                 
                                                                 
 act_4 (QActivation)         (6191, 6, 1, 128)         0         
                                                                 
 global_average_pooling2d (G  (6191, 128)              0         
 lobalAveragePooling2D)                                          
                                                                 
 flatten (Flatten)           (6191, 128)               0         
                                                                 
 dense_1 (QDense)            (6191, 32)                4128      
                                                                 
 act_5 (QActivation)         (6191, 32)                0         
                                                                 
 dense_2 (QDense)            (6191, 16)                528       
                                                                 
 softmax (Activation)        (6191, 16)                0         
                                                                 
=================================================================
Total params: 102,531
Trainable params: 102,048
Non-trainable params: 483
_________________________________________________________________

Number of operations in model:
    conv2d_1                      : 320112 (smult_8_8)
    conv2d_2                      : 2774016 (smux_1_2)
…
