Model: "sequential"
_________________________________________________________________
 Layer (type)                Output Shape              Param #   
=================================================================
 normalization (Normalizatio  (2644, 171, 13, 1)       3         
 n)                                                              
                                                                 
 conv2d_1 (QConv2D)          (2644, 171, 13, 16)       144       
                                                                 
 batch_normalization (BatchN  (2644, 171, 13, 16)      64        
 ormalization)                                                   
                                                                 
 act_1 (QActivation)         (2644, 171, 13, 16)       0         
                                                                 
 conv2d_2 (QConv2D)          (2644, 86, 7, 32)         4608      
                                                                 
 batch_normalization_1 (Batc  (2644, 86, 7, 32)        128       
 hNormalization)                                                 
                                                                 
 act_2 (QActivation)         (2644, 86, 7, 32)         0         
                                                                 
 max_pooling2d (MaxPooling2D  (2644, 43, 3, 32)        0         
 )                                                               
                                                                 
 conv2d_3 (QConv2D)          (2644, 22, 2, 64)         18432     
                                                                 
 batch_normalization_2 (Batc  (2644, 22, 2, 64)        256       
 hNormalization)                                                 
                                                                 
 act_3 (QActivation)         (2644, 22, 2, 64)         0         
                                                                 
 max_pooling2d_1 (MaxPooling  (2644, 11, 1, 64)        0         
 2D)                                                             
                                                                 
 conv2d_4 (QConv2D)          (2644, 6, 1, 128)         73728     
                                                                 
 batch_normalization_3 (Batc  (2644, 6, 1, 128)        512       
 hNormalization)                                                 
                                                                 
 act_4 (QActivation)         (2644, 6, 1, 128)         0         
                                                                 
 global_average_pooling2d (G  (2644, 128)              0         
 lobalAveragePooling2D)                                          
                                                                 
 flatten (Flatten)           (2644, 128)               0         
                                                                 
 dense_1 (QDense)            (2644, 32)                4128      
                                                                 
 act_5 (QActivation)         (2644, 32)                0         
                                                                 
 dense_2 (QDense)            (2644, 5)                 165       
                                                                 
 softmax (Activation)        (2644, 5)                 0         
                                                                 
=================================================================
Total params: 102,168
Trainable params: 101,685
Non-trainable params: 483
_________________________________________________________________

Number of operations in model:
    conv2d_1                      : 320112 (smult_8_8)
    conv2d_2                      : 2774016 (smux_1_2)
…
