Model: "sequential_1"
_________________________________________________________________
 Layer (type)                Output Shape              Param #   
=================================================================
 normalization_1 (Normalizat  (4388, 171, 13, 1)       3         
 ion)                                                            
                                                                 
 conv2d_1 (QConv2D)          (4388, 171, 13, 16)       144       
                                                                 
 batch_normalization_4 (Batc  (4388, 171, 13, 16)      64        
 hNormalization)                                                 
                                                                 
 act_1 (QActivation)         (4388, 171, 13, 16)       0         
                                                                 
 conv2d_2 (QConv2D)          (4388, 86, 7, 32)         4608      
                                                                 
 batch_normalization_5 (Batc  (4388, 86, 7, 32)        128       
 hNormalization)                                                 
                                                                 
 act_2 (QActivation)         (4388, 86, 7, 32)         0         
                                                                 
 max_pooling2d_2 (MaxPooling  (4388, 43, 3, 32)        0         
 2D)                                                             
                                                                 
 conv2d_3 (QConv2D)          (4388, 22, 2, 64)         18432     
                                                                 
 batch_normalization_6 (Batc  (4388, 22, 2, 64)        256       
 hNormalization)                                                 
                                                                 
 act_3 (QActivation)         (4388, 22, 2, 64)         0         
                                                                 
 max_pooling2d_3 (MaxPooling  (4388, 11, 1, 64)        0         
 2D)                                                             
                                                                 
 conv2d_4 (QConv2D)          (4388, 6, 1, 128)         73728     
                                                                 
 batch_normalization_7 (Batc  (4388, 6, 1, 128)        512       
 hNormalization)                                                 
                                                                 
 act_4 (QActivation)         (4388, 6, 1, 128)         0         
                                                                 
 global_average_pooling2d_1   (4388, 128)              0         
 (GlobalAveragePooling2D)                                        
                                                                 
 flatten_1 (Flatten)         (4388, 128)               0         
                                                                 
 dense_1 (QDense)            (4388, 32)                4128      
                                                                 
 act_5 (QActivation)         (4388, 32)                0         
                                                                 
 dense_2 (QDense)            (4388, 10)                330       
                                                                 
 softmax (Activation)        (4388, 10)                0         
                                                                 
=================================================================
Total params: 102,333
Trainable params: 101,850
Non-trainable params: 483
_________________________________________________________________

Number of operations in model:
    conv2d_1                      : 320112 (smult_8_8)
    conv2d_2                      : 2774016 (smux_1_2)
…
